predictor/models/news_emb_low.pt (torch, 2667 bytes, 1 tensors)

weight f4 [29, 16]
00000000: cf0a a93f e2d9 56c0 5034 873f 1319 a13f
00000010: c586 133f 476e 1740 d87a b3bb 34de 98bf
00000020: 58a0 243e 3ed9 843e 0204 4cc0 5d83 5440
00000030: a7ec c03f da0c 0ac0 3022 6cbe ca51 14bf
00000040: 9e81 b3bf 9da7 12c0 e333 08c0 667c d0bd
00000050: 15b2 84be e02f 8cbd e329 a4bc 0c62 87bf
00000060: 1701 63bf 4eec 2d40 0878 de3c eadf a23f
00000070: a76c afbe b1d8 83bb 4d38 033f 742c 6540
00000080: 16c2 403f db5a 3f3f a501 ab3e 02b3 0440
00000090: 350e 0340 3112 e0bf 1e3b 363f 0254 223f
000000a0: 2885 d33f ec77 22c0 c163 bdbe 3bd9 69be
000000b0: 9a62 57c0 d926 713f e345 733e dd92 2640
000000c0: 3be2 16c0 d80d 61bf d091 813f 5835 3b40
000000d0: fad8 6f3f ce79 f0bf 2e1e 2ebf b16c d2be
000000e0: faea f93f 49b3 853f c437 d9bf e2ce 8cbf
000000f0: 5001 54be c859 8fbf 9863 903f 7691 5bbf
00000100: a035 293e 9aa5 bcbe 8c7c 2ac0 097d 1abf
00000110: 99cf 423f 7e41 073d 1b9e e43f c239 27bf
00000120: 5b8f 3b3e a8ab 1dc0 29be fa3f 41c9 603f
00000130: 59e9 0fbf 8aa6 29bf 4cde d7bf f731 f0bf
00000140: 3310 e93f b42f d83f 80ae 79be f3c7 07c0
00000150: 8547 fbbe e812 26bf ed24 d73f 257b 26bf
00000160: 983b 72be 131c c63f c5a6 e2bf 1735 8ebf
00000170: a7de 67bf ab26 9c3f 90bd cebf 721f 41bf
00000180: ffdf 723f 690a 6a3f ba5b 91bf bb61 7ebe
00000190: 3744 10c0 60bd 79bf ee48 1cc0 602c ef3e
000001a0: f934 603f ef31 1bc0 d816 e63f 82e0 dabf
000001b0: 2b8b 5e3f b6bc d5bd 6de1 993f 940a bdbe
000001c0: e411 0940 12ca b1bf f5fb f23e b7ec 83bf
000001d0: 6ab7 5840 6232 17c0 9140 3ebf e39e 613e
000001e0: c1ee 88bf 879f 7ebf e103 7e3f a15c 5a40
000001f0: d865 6abf b2da 363f 8a80 30be 6eb7 62bf
00000200: 8e78 bd3f 9368 b3bf a05e b33f e047 c33f
00000210: 5d53 d63e 91db 9fbe da98 3540 b31c 8a3f
00000220: 0e39 39c0 d53a 2040 b099 bfbc 2efd 84bf
00000230: 9f4f 6dbd 96ad 243f 5aea 493f 9ecb 3540
00000240: 2471 14bf 661f 97bf dfb2 613f 4625 56bf
00000250: 5816 173f d237 f03e d047 b8be b462 20c0
00000260: db4f afbe 14cf db3e 5350 803f 4cdd 4d3f
00000270: cee4 3340 5e5d d53f 7369 bb3f 7bf2 bdbf
00000280: deb2 613f e7c2 27c0 d978 353d 28b4 cd3d
00000290: 56ae c23f 0de6 62bf 7c2f 32bf fd25 0440
000002a0: 4a29 2840 5af1 26be 7df3 223f cff8 363e
000002b0: 5585 073f cd42 e3bf 4b14 0040 6b0c 6140
000002c0: 0e20 07c0 889b c3bf 80bc b9bf 9c6c 0fbf
000002d0: 601c d13e ef20 123f 9c74 cbbf e727 a33f
000002e0: 0e1a 7cbf f314 6dbf cae5 0ebe 5cc3 9a3e
000002f0: d0af 6cc0 970c 1cc0 bef5 b4bf 8ef2 abbf
00000300: bb45 883f 5a86 a43f 96f7 89bf 7a58 d63e
00000310: 5e1a 2c3f 6d66 a13e 79b8 3ec0 80c3 f4bf
00000320: 1dfd a93f c169 113f 01a8 0240 9ed2 043f
00000330: 1e98 02c0 76c4 00bf 8528 c1bf 79a9 8bbe
00000340: 04d6 bb3f 8240 cb3f 25fd afbf bc08 9e3e
00000350: a979 17bf 9b68 a6bf 9b51 7e3f f6e6 3a3f
00000360: 00c5 08c0 754a 933c d2a9 0cbf 04bb 4b3e
00000370: 0c23 3b3e 5f73 43c0 adbc 0240 f529 4b3f
00000380: 4471 2ec0 cf0c 8e3f 337f e83f b08b e0bf
00000390: c60f b93f e1b6 8f3f f486 4fbf 844a 963e
000003a0: f54b 113f ce87 abbf f85f 88be aff5 abbe
000003b0: 500c be3e 1509 f7be 518b 853f 121e 833f
000003c0: ab94 14be 94c6 68bf 206d ba3f e524 a83e
000003d0: 2087 a5bf 90c5 cebf 8b3e efbd 8b43 5abf
000003e0: 3f30 f1be 16da 4cbe f447 d03e a2f1 01be
000003f0: b065 a73e ef9e e2be 1c8b 23c0 2134 ca3f
1.3206424 -3.3570485 1.056284 1.2585777 0.57627517 2.3661058 -0.0054772906 -1.1942811
0.16076791 0.25946993 -3.1877446 3.3205178 1.507222 -2.1570344 -0.23059916 -0.579373
-1.4023931 -2.2914803 -2.128167 -0.10179977 -0.25917116 -0.06845069 -0.020039504 -1.0576797
-0.8867354 2.717548 0.027156845 1.2724583 -0.34262583 -0.0040236344 0.51257783 3.5808382
0.7529615 0.7474801 0.33399692 2.0734258 2.0477421 -1.7505552 0.71183956 0.63409436
1.6525011 -2.5385695 -0.3699017 -0.22836773 -3.3653932 0.941999 0.23757128 2.6027138
-2.357558 -0.8791175 1.0122623 2.9251308 0.93690455 -1.8787172 -0.680148 -0.4109855
1.9524834 1.0445338 -1.6970143 -1.1000636 -0.20703626 -1.1199274 1.1280394 -0.8576883
0.16524363 -0.36845094 -2.6638517 -0.6034704 0.7609802 0.033021443 1.786075 -0.65322506
0.18316405 -2.463602 1.9589282 0.8780709 -0.56215435 -0.66269743 -1.6864715 -1.8765248
1.8208069 1.6889558 -0.24382973 -2.121579 -0.49078003 -0.648726 1.6808144 -0.65031654
-0.23655546 1.5477318 -1.7707144 -1.1109952 -0.90574116 1.21993 -1.61516 -0.75438607
0.9487304 0.91422135 -1.1356118 -0.24841969 -2.2541635 -0.9755459 -2.4419513 0.46713543
0.8758083 -2.4249227 1.7975721 -1.7099764 0.86931103 -0.104363844 1.202192 -0.36922133
2.141717 -1.3889792 0.47457853 -1.0306615 3.3861947 -2.3624501 -0.7431727 0.22033267
-1.0697862 -0.9946217 0.9922467 3.4119036 -0.9156165 0.7142745 -0.17236534 -0.8856114
1.4802415 -1.4016289 1.4013252 1.525631 0.41860476 -0.31222203 2.8374543 1.0790008
-2.8941073 2.5035908 -0.023388714 -1.0389764 -0.05793726 0.6432737 0.7887322 2.8405528
-0.5798514 -1.1806457 0.8816356 -0.83650625 0.5901847 0.46917588 -0.3599229 -2.5060244
-0.34240612 0.42931426 1.0024513 0.804158 2.8108401 1.6669118 1.4641556 -1.4839624
0.88163555 -2.621271 0.044304702 0.10044128 1.5209453 -0.8863228 -0.69603705 2.0648186
2.62752 -0.16303006 0.63652784 0.1786835 0.52937824 -1.7754761 2.0012386 3.516383
-2.1113315 -1.5281839 -1.4510651 -0.560251 0.4084196 0.570815 -1.5894961 1.2746552
-0.98477256 -0.9261009 -0.13954845 0.30227172 -3.6982307 -2.4382684 -1.4137495 -1.3433397
1.064628 1.2853501 -1.0778682 0.41864377 0.67227733 0.31523457 -2.9800093 -1.9122162
1.3280369 0.5680199 2.0415041 0.51883876 -2.0405345 -0.50299776 -1.509049 -0.27277735
1.4674687 1.5879061 -1.3749129 0.3086604 -0.59170014 -1.3000673 0.9934327 0.7300867
-2.137024 0.01797984 -0.54946625 0.1989556 0.18275088 -3.0539167 2.0427659 0.79360896
-2.7256632 1.1097659 1.8163818 -1.7542629 1.4457939 1.1227685 -0.810653 0.29353726
0.56756526 -1.3400819 -0.26635718 -0.3358588 0.3711877 -0.48249117 1.0433141 1.0243552
-0.14509837 -0.90928006 1.4564552 0.32840648 -1.2931862 -1.6154041 -0.11681851 -0.8525931
-0.4710712 -0.20005068 0.40679896 -0.12689832 0.3269477 -0.44261882 -2.5553656 1.5797158
