predictor/models/news_linear_all.pt (torch, 105831 bytes, 2 tensors)

weight f4 [102, 256]
00000000: 279d 263d 4d49 82be 3f31 383f 3f1d 7a3d
00000010: b8ba e1bd 0d61 633d da11 e9be 58ee 1dbd
00000020: f535 ec3e 055b 39bc 7177 16be 1a1d 8b3d
00000030: 0a07 19be 12cc eabe 3b62 bd3d 4220 eb3d
00000040: d676 a03e 3c9e bcbd df72 5cbe 3ac7 7b3d
00000050: 450c 123e 2dba 8b3c b0a3 d9bd 185f 21be
00000060: 12ef 28bd 477e 0ebd 9ff6 95ba b05c f03c
00000070: 7a86 37bd 6b9c 5e3e b195 89bd 4d2d 073e
00000080: c4ec 073e acc3 2fbe 84ee cbbc 6e32 3a3e
00000090: ad05 7ebe a351 be3d 308a 733e 5e54 8bbe
000000a0: 913b 41be 3a07 d03d aec8 e43d 3b49 943c
000000b0: 71fe 393f 61ee f53e ef9b 12be b959 ac3e
000000c0: ed35 a3bd c53d aabe e669 193c 8ffd 2c3d
000000d0: cb38 6dbe 9369 d3bd db57 773e fca5 de3d
000000e0: 8b09 193e 8488 22be 648d 93be 57c8 40be
000000f0: 4b45 0a3e 8a4c 8c3d b062 c3be 4671 b83e
00000100: def1 24be afbd c5be 1836 913c 99ed 76be
00000110: 317b ddbe 6576 35be 5a29 96bc c1fe 9ebe
00000120: 1248 893e c39a 823e 1c12 dc3b 0393 cc3d
00000130: 7859 88be aae0 723e 4696 17bd f912 44be
00000140: f779 61bd 8526 f0be 4a67 693e a573 e53e
00000150: 615a 8a3d 795e 053e bce6 983e bf29 0d3e
00000160: 79ae 29be 542d cdbe dd78 433e 17b9 513c
00000170: d9e5 c2bc 13b9 d13d 0fd5 9abe 4466 d7bd
00000180: dc2a bf3d 17c1 71bf ec42 f13e e723 44be
00000190: 4259 68bd 7c73 7d3e e197 013e dc64 88bd
000001a0: 6d6e c3be abde 73be 40f2 0ebd db8b 333f
000001b0: ee03 b5be 9f18 9d3d 3c46 b93e b5d8 083e
000001c0: 95b0 fd3d 3b42 eabd 7ffc 9d3e 6d43 053e
000001d0: 273f 8a3d 8be0 5a3e b10d a13f b39c 723c
000001e0: 1b7d c6be ac20 2c3e b719 903d f3c0 17ba
000001f0: 5cce 2c3c ba88 5bbc 5d31 b93c af59 ac3e
00000200: 586e 9f3d af8b d33d 0bb6 5f3d 52e2 95bb
00000210: fd53 0d3e 2b47 e6bd ee69 c33e f23a f53c
00000220: cb67 3a3e 19a9 35bf d483 b43e 4c62 3c3e
00000230: a198 49bd 384c f5be 9489 e0bd d46b d33e
00000240: 274e c3bb 9c01 733e 4a1e 8abe a5f6 c63d
00000250: 1000 4e3e 717f 3f3e c624 5d3d d6ac 48be
00000260: 09a2 37be 9f36 8dbe 3916 693d 18da 42be
00000270: 91d9 403e 6567 8b3e 503c 533b 8d7d 1dbf
00000280: e785 843d 5bbe 8a3e 8d0f 0f3b 5a3c 87bd
00000290: ad75 d83e 9a2a a5be 27f5 cb3d 7865 873d
000002a0: 980b 22bd 966f 0cbf 1a10 32be 3a9f b0be
000002b0: ad64 a43d 5fb1 b13e fa9c 483e 48a8 3f3e
000002c0: 8e6d 37be 7b12 54be 41df ce3e 8b3c 973d
000002d0: 8e74 653e a49e d1bd 79ef 40bd fe56 36bd
000002e0: fbeb fc3d 4314 0dbc 3fd0 d1be 6ca3 083f
000002f0: f584 b1bd 372d cdbd fac6 1bbe ecfd fc3e
00000300: 8855 5dbe 306c f3be d550 0cbe d10e 0cbe
00000310: eb1d a1bd aa7e ffbe 0798 47be b7d4 f0be
00000320: 61bd aa3d 2fe3 053e 5cbd 11bf 9182 163d
00000330: 8585 c43d 7a2f b7be 905c ea3d 7f83 d6bd
00000340: cacb 003e eef7 4b3d b82b 9a3e 86d3 1e3f
00000350: 7faf 60bd 1f72 2c3e 0ad1 ccbd c3c2 ae3e
00000360: 1b13 1b3e 67b2 83be ba95 2e3e f2d4 c33e
00000370: 4f58 27bf d796 67be 9c50 29be 1077 0c3e
00000380: 100e 2e3e e9b1 47be e4ac 193e 4430 79ba
00000390: 56b0 a2bd 8d2f 34bf 5434 f7be 3693 393e
000003a0: ffc2 31bd f407 4d3e 4a90 d23e be4a 1ebd
000003b0: 453e e0bd 52ed 1ebe 9657 e3be 5277 8a3e
000003c0: d2e7 213e 2825 86be 7f4a e23c c4df 053e
000003d0: a99b 21be 349b 56be 25a9 603d 6766 8fbb
000003e0: 80f5 15be 9b75 113e 8622 25be 13c1 273e
000003f0: 2f86 f33d 4b4b a03e 773b e6be b636 cbbd
0.040677216 -0.2544655 0.71950144 0.061063047 -0.11021942 0.055512477 -0.45521432 -0.03855738
0.46134916 -0.011313205 -0.14694001 0.0679266 -0.14944091 -0.45858818 0.092472516 0.11480762
0.31340665 -0.09209868 -0.21528195 0.061469294 0.14262493 0.017056549 -0.10626924 -0.15758932
-0.04124362 -0.034788396 -0.0011441297 0.029341072 -0.04480598 0.21739356 -0.067180045 0.13200875
0.13273913 -0.17164487 -0.024894007 0.181833 -0.24806853 0.09292915 0.23783183 -0.27212805
-0.18870379 0.10157628 0.11171089 0.018101325 0.7265387 0.4803343 -0.14317296 0.33662203
-0.0796927 -0.3325025 0.009363627 0.042234 -0.23166196 -0.10322871 0.24154608 0.10871503
0.14945047 -0.15872389 -0.2881881 -0.18826424 0.13502996 0.06850536 -0.3816123 0.3602392
-0.1610789 -0.3862128 0.01772599 -0.24114074 -0.4325805 -0.17720945 -0.018330265 -0.31053737
0.26812798 0.255087 0.006716026 0.09988978 -0.2663076 0.23718515 -0.037008546 -0.19147862
-0.055047955 -0.46904388 0.22793308 0.44814792 0.0675552 0.1302432 0.29863536 0.13785456
-0.16570462 -0.40073645 0.19089074 0.0128004765 -0.02379124 0.10240378 -0.30240676 -0.105175525
0.09334347 -0.94435257 0.4712137 -0.1915432 -0.056725748 0.24751085 0.12655593 -0.066598624
-0.38170186 -0.2381541 -0.034898996 0.7013528 -0.3535456 0.07670712 0.36186397 0.13363917
0.12387196 -0.11438414 0.30856702 0.13014002 0.067503266 0.21374719 1.2582303 0.014807868
-0.38767323 0.16809338 0.07036155 -0.00057889445 0.010547247 -0.013399297 0.022606546 0.33662173
0.07784718 0.10329377 0.05461697 -0.0045740986 0.1380157 -0.11244043 0.38166755 0.029935334
0.18203656 -0.7096115 0.35256827 0.18396872 -0.049217824 -0.47909713 -0.10963741 0.41293204
-0.005960244 0.23731083 -0.26976234 0.097150125 0.20117211 0.18700959 0.053990148 -0.19597182
-0.17932905 -0.27580735 0.05690596 -0.19028509 0.18832995 0.2722732 0.0032231994 -0.615197
0.06470852 0.27098355 0.0021829337 -0.06603308 0.4227728 -0.32259065 0.099588685 0.066111505
-0.039561838 -0.54857767 -0.17388955 -0.3449648 0.08027015 0.34705636 0.19591132 0.18716538
-0.17912886 -0.20710175 0.40404704 0.073845945 0.22407743 -0.102353364 -0.04710338 -0.044516556
0.12349697 -0.008610788 -0.40979192 0.5337436 -0.08667938 -0.1001839 -0.15212622 0.49412477
-0.21614659 -0.47543478 -0.1370271 -0.13677527 -0.078670345 -0.49901325 -0.19491588 -0.4703729
0.083369024 0.13074945 -0.56929564 0.03674561 0.09595779 -0.3577841 0.11443436 -0.104743
0.1257774 0.04979699 0.3011148 0.6204151 -0.054854866 0.16840409 -0.100008085 0.34132966
0.15144007 -0.25722048 0.17049304 0.38248402 -0.65369123 -0.22616135 -0.16534656 0.13717294
0.16997552 -0.19501461 0.15007359 -0.00095057883 -0.0794379 -0.70385057 -0.4828211 0.18122563
-0.043398853 0.20022565 0.4112571 -0.0386455 -0.10949377 -0.15520218 -0.4440276 0.2704416
0.15811089 -0.26200223 0.027623413 0.13073641 -0.15782036 -0.20957643 0.05484881 -0.004376221
-0.14644432 0.14205019 -0.16126451 0.16382246 0.11890828 0.31307444 -0.44967243 -0.09922545

bias f4 [102]
00000000: e7e7 cc3d 9ceb 4cbd 0571 27bd 3090 ccbc
00000010: e27d d0bd 018e e2bd 9fab e3bd 59ae 10bd
00000020: 2af8 2dbd 98eb 29bd 3727 a3bd 6746 82bd
00000030: fc2b f638 4589 9dbd ddc0 47bd 2e8c c3bd
00000040: 23ff d4bd 1e99 e4bb 801e ecbd 24b8 98bd
00000050: 15a9 b6bd 51df 90bd fd18 88bd f4c9 92ba
00000060: 5e60 87bd 16a6 a1bd 2a6d 0fbd 1f75 f7bd
00000070: 810b bfbd e8ab 5fbd 4149 4dbd 8bae e7bd
00000080: 6d85 883b 8036 85bd 20e2 b6bd e603 92bc
00000090: 7775 babd f454 adbd 797c 91bd 74ef b4bd
000000a0: 40d3 a13c 3126 b93c cc03 d63c 5c87 b9bc
000000b0: c693 59bc c440 5ebc 9b07 8bbb 0423 a13d
000000c0: f6aa 49bc 7b67 28bd 2af9 513d 0089 933c
000000d0: 0a61 dc3d 769f 2f3d 106c 843d 48e9 6c3d
000000e0: b867 0dbe 5115 d23c beca d3bc ef9b bc3d
000000f0: 0c81 043d 58eb 9f3b 4cb6 113d e7c5 343c
00000100: d3a5 7c3b d915 ad3c e30c 83bc 242c 38bd
00000110: 607a 5139 68b0 f0bb 1deb 863c e32f 3f3d
00000120: 7dd6 74bd 6027 ea3c be23 da3c 3532 73bc
00000130: 2bd3 97bd 1b05 37bd faa2 0c3d abdb 30bc
00000140: d43c 8ebd 23da 93bd e646 84bb 757c cdbc
00000150: 3cac b2bc 9e68 4fbd 94f6 ccbc 2d3e a5bd
00000160: 726f 07bd 1e6c 56bd 9b80 35bd 207d 3c3c
00000170: 6f53 00bc 2c98 edbc 7d88 64bd e53e a2bd
00000180: 8cd4 a6bd eb1b dbbd fd90 dcbd d8d5 bbbd
00000190: 9f32 53bd ae4d 93bd
0.10005169 -0.050029382 -0.04087927 -0.024971098 -0.1018026 -0.11062241 -0.111167185 -0.03532252
-0.042472996 -0.041484445 -0.07966464 -0.063610844 0.00011738387 -0.07692198 -0.048767913 -0.095482215
-0.10400226 -0.006976261 -0.11529255 -0.07456997 -0.089189686 -0.07073844 -0.06645391 -0.0011199103
-0.066101775 -0.078930065 -0.035016216 -0.12082886 -0.09328366 -0.054607302 -0.05011869 -0.11312588
0.004166296 -0.06504536 -0.08929849 -0.017824125 -0.09104436 -0.08463469 -0.071038194 -0.088347346
0.019754052 0.022601219 0.026124857 -0.022647552 -0.013279861 -0.013565246 -0.00424285 0.07868007
-0.012308827 -0.04111431 0.051263012 0.018009663 0.10760696 0.042876683 0.06465924 0.05783966
-0.13809097 0.02564493 -0.025853511 0.092094295 0.03234963 0.00488035 0.035574242 0.011033512
0.0038550987 0.021128582 -0.015997356 -0.04496397 0.00019977381 -0.007345248 0.016469533 0.046676528
-0.059774864 0.028583229 0.026628371 -0.014843513 -0.07413324 -0.044682603 0.034335114 -0.01079456
-0.06945196 -0.07219341 -0.004036772 -0.02508376 -0.021810643 -0.05063688 -0.025019921 -0.080685
-0.033065267 -0.052349202 -0.0443121 0.0115044415 -0.007832392 -0.029003225 -0.055794228 -0.079221524
-0.08146009 -0.10698684 -0.10769842 -0.09171647 -0.051561948 -0.071925506
