predictor/models/news_linear_low.pt (torch, 30759 bytes, 2 tensors)

weight f4 [29, 256]
000000 b9 76 04 bd 30 33 fe bd 40 d6 f8 bd 1a 90 06 be
       -0.032339785 -0.12412107 -0.1215024 -0.13140908
000010 21 41 ed bd 1e a9 b2 be 8d 51 00 3e 05 bf 47 be
       -0.11584688 -0.3489465 0.12531109 -0.19506462
000020 a6 1f 4d bd 8f 73 73 3e 66 68 19 be 24 11 4f bd
       -0.05007901 0.23774551 -0.14981231 -0.050553456
000030 95 83 8a 3d 69 cc 7b bd 55 82 23 3e 88 4b 8f 3d
       0.067633785 -0.061474238 0.15967686 0.06996828
000040 ab 2f 5a bd c9 96 6b be 3a 50 2a be e1 60 c9 be
       -0.053268116 -0.23006739 -0.16632167 -0.39331725
000050 e6 03 09 3f 4b 84 1c be 32 8a 3c bd ee 31 03 bd
       0.53521574 -0.15284841 -0.04603023 -0.03203004
000060 88 c4 d3 3b b5 e4 81 3e d2 bb 0d be b2 26 29 be
       0.0064626373 0.25369802 -0.13841179 -0.16518667
000070 12 16 1f 3e 65 59 50 3e 5e 56 01 be 1a f7 1b 3d
       0.15535763 0.20346601 -0.12630603 0.03807745
000080 b2 bd 65 3e 73 80 98 3e 58 f1 79 3d be 88 74 bd
       0.22435644 0.297855 0.06102118 -0.05970072
000090 e3 c5 01 bf b6 ef 97 be 68 f2 63 3d 99 dd 51 3c
       -0.50692576 -0.29675072 0.0556511 0.012809181
0000a0 c1 34 66 3e 3b d2 18 3d 3f 4d 5a bc 38 15 ac 3d
       0.22481062 0.037309866 -0.013324081 0.08402485
0000b0 3e 60 35 be 41 14 be 3d cc 33 86 be af 1a 45 bd
       -0.17712495 0.09281207 -0.26211393 -0.04812115
0000c0 a5 de 84 3e b1 aa 73 3e 1c be 51 be 72 ef 6c 3e
       0.25951114 0.23795582 -0.20482677 0.23138216
0000d0 6e e7 a2 be ff 83 ea bd 49 38 2b bd 31 ad d0 bd
       -0.31817192 -0.114509575 -0.041801725 -0.10189284
0000e0 18 85 6f 3e 67 2c 56 be 1e 6a 6f bd 0b c6 92 be
       0.23390615 -0.20915376 -0.05845081 -0.2866672
0000f0 e0 29 32 3e f0 3d 44 bd 28 08 d9 3c 00 6e ac bc
       0.17398787 -0.04791063 0.026493147 -0.021048546
000100 f8 19 b2 3e cf 39 50 be 1e 39 98 bd 57 9c dc bc
       0.34785438 -0.20334552 -0.07432769 -0.026930017
000110 77 20 c8 bd c6 3b d6 3d 8c 36 e9 bd 80 67 c0 3c
       -0.09771817 0.1046062 -0.11387357 0.023486853
000120 f1 14 3f bc 59 9a 1b 3e 89 72 de bc 77 e7 10 bd
       -0.011662708 0.15195598 -0.027154224 -0.035376992
000130 7c af a5 bd 9e ae a1 3c c0 cc 18 3e 59 47 fc 3d
       -0.080901116 0.019736584 0.14921856 0.12318296
000140 b6 3d e8 3c 34 7e 40 bd 52 68 a8 3e 96 70 cb 3e
       0.028349739 -0.046995357 0.3289209 0.39734334
000150 d9 02 81 3e cd 47 97 3d 03 5f f0 3e fe 96 37 bc
       0.25197485 0.07386742 0.46947488 -0.011205433
000160 df 69 52 bd 52 59 91 3d 4c 1b ea 3e a3 81 75 3e
       -0.051370498 0.070971146 0.4572395 0.23975234
000170 b6 b7 94 bd b3 58 97 3e 4e d7 40 3e 69 03 af be
       -0.072616026 0.2955986 0.18832132 -0.3418229
000180 5e 54 a0 bd 9e 38 48 3e 23 01 1a be c9 1f 43 be
       -0.07828592 0.19552848 -0.15039496 -0.19055094
000190 6f 39 eb bc ce ed 46 be fa 60 0b 3e 9c ef 63 be
       -0.02871391 -0.19426653 0.13611212 -0.22259372
0001a0 c8 af c4 bd ab 0a 74 bd 54 ae 17 3d 4c 10 51 3d
       -0.0960384 -0.059580486 0.037031487 0.051040933
0001b0 68 c4 a2 3d 67 a1 0e 3e cb 76 86 3d 1c cd 1f 3c
       0.07947618 0.13928758 0.06565627 0.009753492
0001c0 e9 9a d4 bd 70 2c 98 bb cc b8 f7 bc 0e e4 49 3c
       -0.10381109 -0.0046439692 -0.030239485 0.012322439
0001d0 32 07 41 3e 25 06 84 3d 72 04 31 bd 19 62 34 bd
       0.18850401 0.064464845 -0.04321713 -0.044038866
0001e0 fd 7f 57 3e e5 7e 52 be 33 02 6e 3e f5 9e 5d 3e
       0.21044917 -0.20556219 0.23243026 0.21642669
0001f0 20 a7 c1 bd d4 dc ff 3e 18 8a a5 3d 25 2d 04 3e
       -0.09455705 0.49973166 0.0808298 0.12907846
000200 7e b2 1d be d4 5a ed 3d ab ea c8 be 67 51 48 be
       -0.1540012 0.1158959 -0.39241537 -0.19562303
000210 6d 1f ba 3e 72 95 69 bd bd 74 30 3e 34 6d 81 be
       0.363521 -0.057027288 0.17232032 -0.25278628
000220 bc d2 87 3e 0e ef 82 3e 2a 5d 82 bd 07 04 20 3e
       0.26527965 0.2557301 -0.06365426 0.15626536
000230 80 f3 1e bc 49 5b d5 bd 39 21 43 bd c0 0b 2c be
       -0.00970161 -0.10417802 -0.047639105 -0.16801357
000240 bf 47 75 3d c1 0d 17 3e 0e af bf bd 20 81 0a 3f
       0.059882876 0.1475134 -0.09359561 0.5410328
000250 17 81 2b bd c1 a5 b1 3a 17 cd 00 3f 06 db 25 3d
       -0.041871157 0.0013553427 0.5031294 0.04049208
000260 12 c9 fc 3e 83 e8 ec bd 74 e4 f2 bd 31 57 2e 3e
       0.49372154 -0.115677856 -0.1185998 0.17025448
000270 98 9d a5 bb 29 e7 ab bd a6 9e a7 be 98 d4 6c 3e
       -0.005054187 -0.083937 -0.32738227 0.23127973
000280 78 96 25 be 2a c2 90 3e 84 86 20 be b2 61 2e be
       -0.1617068 0.28273135 -0.15676314 -0.17029455
000290 44 66 42 3e 8b 30 6b 3d f7 68 33 3e 59 60 06 be
       0.18984324 0.05741934 0.1752051 -0.13122691
0002a0 95 8c 40 3e 16 9c f5 bd 53 ff e3 bd 27 82 90 be
       0.18803628 -0.11992662 -0.111326836 -0.28224298
0002b0 4c f5 3a be 5a 4e 36 3e 2d e5 33 3d b6 8f 15 bc
       -0.18257636 0.17803326 0.04391973 -0.009128502
0002c0 e5 71 19 3e 23 e4 d1 3d f7 a8 17 3e 43 a7 cd bc
       0.14984854 0.10248592 0.14810549 -0.02510417
0002d0 7b f1 cc be 49 dc 18 3e c4 da cf 3e b2 81 b3 3e
       -0.40027985 0.14927782 0.40596592 0.35059887
0002e0 cc 2f d5 3e 84 95 fb 3d e2 ad ad 3e 31 31 ab bd
       0.4163803 0.12284377 0.33921725 -0.08358992
0002f0 4c be 0a be 39 0a 0b 3e 6e c7 84 bc ee 19 90 3b
       -0.13549155 0.13578118 -0.016208377 0.0043976223
000300 ee 17 b0 be 65 83 4a bc 39 93 50 3d 87 01 62 bc
       -0.34393257 -0.012360428 0.050921652 -0.013794309
000310 3e 8a 0c 3e 08 58 b3 3d ef 6e d5 3e 81 22 55 3e
       0.1372461 0.08757025 0.41686198 0.20813943
000320 b8 5b 05 3e 2c d4 48 be d4 50 14 3e a4 97 a6 bd
       0.13023269 -0.19612187 0.14483958 -0.08134392
000330 0f 07 50 3c 3c fe 6d 3b ab 5b 8f be 66 6d 9e bc
       0.012696995 0.0036314866 -0.27999625 -0.019339275
000340 10 7b 68 3e 8c b9 18 3e 0b 01 ef bd 13 04 cb 3e
       0.22703195 0.1491453 -0.11670121 0.39651546
000350 3e 0d 98 3e be e6 78 bd 41 d1 af 3c 40 59 31 3e
       0.29697603 -0.060766928 0.021462085 0.17319202
000360 1b 79 00 3e 9a d3 c4 be c4 5e 38 be cc 0e 23 be
       0.12546198 -0.3844269 -0.180049 -0.15923613
000370 f4 9c 2d be 7f 76 a4 3d 46 6f f4 3d 86 dc 2b 3e
       -0.16954404 0.08030414 0.11935286 0.16783342
000380 34 69 82 3e 35 ab d6 be 04 59 16 be 39 63 94 3e
       0.2547089 -0.41927496 -0.14682394 0.2898195
000390 e1 8e e9 3e 1a 3b d6 be 3b e7 1e 3e 17 03 cb 3e
       0.4561682 -0.41841966 0.15517895 0.39650795
0003a0 1d 83 81 3d d6 09 ec bc b5 d4 1e be 0d a3 cb 3e
       0.06323836 -0.028813284 -0.15510829 0.39772835
0003b0 34 80 e8 be 16 9a cf bd cd ae 9b 3e b3 61 44 be
       -0.4541031 -0.101368114 0.304068 -0.19177894
0003c0 e9 df 94 bd 51 7b 83 3e a5 7f 30 3e b8 cc 8c 3c
       -0.0726927 0.2568002 0.17236193 0.017187461
0003d0 14 05 95 be d8 2c 68 be a2 cd 9d 3e 2a e4 73 bc
       -0.29105437 -0.22673357 0.30820948 -0.0148859415
0003e0 f1 5b bf bd 75 55 eb 3d 2e a4 d6 be 68 ba 82 bb
       -0.09343708 0.11490909 -0.41922134 -0.0039895065
0003f0 40 31 50 3d 20 30 41 bb 41 b8 31 be 46 2e 53 3e
       0.05082822 -0.0029478148 -0.17355444 0.2062312

bias f4 [29]
000000 2a 28 8e 3d 51 e0 6e 3d 1d 48 e4 3d 2d 32 1b 3d
       0.069412544 0.058319394 0.11146567 0.03788965
000010 77 ec 69 bd a9 92 21 bd e8 a2 14 bb 86 fa 03 3d
       -0.057110276 -0.039446507 -0.0022680108 0.03222134
000020 77 17 94 3d 1c 85 98 3d 36 bb 5d bc 41 5d 7e bb
       0.07231038 0.074472636 -0.013533404 -0.0038812908
000030 10 c8 ff bc b8 73 b5 3d 33 f9 17 3c c2 a5 b0 bc
       -0.031223327 0.08859962 0.009275722 -0.021563414
000040 a8 77 dd bd 27 09 0d be 8e d0 df bd f9 a9 2d 3b
       -0.10813838 -0.13773023 -0.109284505 0.0026499017
000050 51 21 57 3c 0d 89 f6 3b e7 fb 77 3d 19 28 23 be
       0.013130502 0.007523662 0.060542967 -0.15933265
000060 96 93 be bd 46 24 18 3c 48 c5 1b be b6 44 7d bd
       -0.093054935 0.009285992 -0.15211976 -0.061833106
000070 d0 ce 91 be
       -0.28478098
