predictor/models/twitter_linear_all.pt (torch, 105831 bytes, 2 tensors)

weight f4 [102, 256]
00000000: 87d2 033e 65a5 ffbe 248b 353f 592e 943d
00000010: 0c65 11be 7ec5 133e 9a4b 62be 7334 823d
00000020: bc6b bebd c104 92bd 8932 4bbc fb3a 983e
00000030: 5fbe b3bd b597 39bf 1081 fb3d 3501 023e
00000040: 033b de3e 303a 283e 8402 7abe cda8 833d
00000050: 9c65 983c d6d4 09be 4b06 bebe 74de 29bd
00000060: 45c7 473c 8b0b 5bbe 7b63 613d af7c 9bbe
00000070: f4b4 6bbd bf5c d13d b7cd 1abe 97e6 6ebe
00000080: 678a 0b3d 6076 f1bd 08bf e1bd 2c94 4b3e
00000090: b40b 483f 549a 643d 7a65 d03d c84e 1e3e
000000a0: 1395 19be 0ba2 13be d194 4b3d d3d9 c23e
000000b0: 21e6 d93d 8632 813e 80c7 a0be 2f2f cd3d
000000c0: 76d3 763b fb4b 1bbe fbb5 1c3e a4f6 733e
000000d0: fa79 f7be c887 92be 0d5f adbe e96b 69bd
000000e0: 0d4b 3a3e 1030 47be e13a 22be 4bf5 1dbc
000000f0: 5dd9 893d f9bf a9bd fc9a 393e bb76 e03e
00000100: c8e8 57be 0009 1cbd bd73 48bd 277a 7cbe
00000110: 9faa e4bd 38dd 21be 5682 523d 4b27 9abd
00000120: 792f 813e e196 463d 5dde c93d cb3a ca3d
00000130: 2d49 80be a545 cf3b 4570 2f3d 4a46 92bd
00000140: 631c cfbd 8fb4 42bf 3609 4f3e dc25 4d3e
00000150: 47c9 563e fe96 ac3d accf ccbd c8c0 afbd
00000160: b7a3 abbd fe96 b9bd 5ffa 3c3d e974 d5bd
00000170: 1302 de3d 8200 403e f50f 24be 416c a4bd
00000180: 237a 003e 57c8 2dbe 6421 413e 46b6 7fbe
00000190: 0f2c 4abe 69b6 383d d786 07bd f3b4 24be
000001a0: 6cce a5be 49da a4bd cace eebc 7694 e73e
000001b0: 77fd 9dbe ad67 41bc 151e 5e3e dff5 6e3d
000001c0: d151 dc3d be40 a4bc b21f c73e 428f 793d
000001d0: 9123 403e a443 5f3c 3307 203f f3b2 5cbd
000001e0: 1b76 0dbe 194e fc3d 454e 5b3e 57cb 17be
000001f0: 3ae0 5d3d 7fb4 c53d 60a6 f0bd 1874 fb3d
00000200: 4301 143e 1218 bd3d 6905 a83c 35a7 153c
00000210: a3a8 96bb 85f0 c4bd 81e9 043d 4239 953d
00000220: 8fc6 543e a311 0bbe ae1a 303d 3a82 5e3d
00000230: 95b6 90bc d705 7bbe 454a 023b 79e3 d23e
00000240: bb10 24bd 8d9e ce3e f270 22be ed5b acbc
00000250: 01ba 713d 3869 62bd be1e b8bb 62e8 94be
00000260: b736 a4bd d88a 1cbf 61ed 793b a46e 0e3e
00000270: 64aa 6a3e a91a da3d 498c ae3b e24f 5bbd
00000280: e361 063d 9313 243d dd64 7cbd 1ec9 dcbd
00000290: c509 333e 64ae cd3c 1d6f 353e 5b51 103d
000002a0: 515d e3bd a3e8 e2be 666a c0bd 572f 4cbe
000002b0: ea76 323e e791 7e3e 8719 4cbd 89f9 0a3e
000002c0: 7fdb a3bb dfeb 1fbe 2183 313e cf54 6bbc
000002d0: eba3 523e 57f6 01be e093 2bbe 2235 cb3d
000002e0: 5e67 7dbb 77a5 233c 818b 62be 4d42 093f
000002f0: fe5d 64be ba9b 8abd 00a1 b9bd 36b1 56bd
00000300: 34c9 83bd ea73 b9be 514d 5abe c094 abbb
00000310: f8f9 69bc daad eabd 832a 8cbd 4fbf 80be
00000320: 1d3d ea3d d1c0 293e 0a65 62bf 17d6 903c
00000330: a76f fdb9 ec13 65be dcac fd3d 82fa 51bd
00000340: 980a 463e 45a8 623d 44cf 393e 0e89 2a3f
00000350: cc9b e5bd b9f4 a53e ab75 4bbe feef 2d3e
00000360: 63ad 6abe 8e33 2ebd 5328 a93c e3ba 043d
00000370: b7a6 55be 2b95 35be ffd1 f5bd 7696 ad3d
00000380: a5cc 443d 5f1c a33d b0d1 5b3d 69ce d43c
00000390: f342 52be 9869 72be 0c77 853f 9ed5 993d
000003a0: 5079 453d 9d18 7e3d be3a 273e da49 b5bc
000003b0: cbca 8bbd 770d c5bd 8658 a6be caf0 c73e
000003c0: b701 373e 08ab f6bd b924 61bd a671 613d
000003d0: 86f9 36bd da26 22be a62d 4c3e 6d45 723e
000003e0: 034e b7bd 6c9e 883e 884a ffbc f898 db3d
000003f0: 784d cfbd c1d6 743e 5c2f b03d 3825 41bd
0.12873279 -0.49930874 0.70915437 0.072354026 -0.14198703 0.14430806 -0.22099152 0.0635766
-0.092978925 -0.07129813 -0.012402185 0.297325 -0.08776545 -0.7249711 0.12280476 0.12695773
0.43404397 0.16428447 -0.24415022 0.064286806 0.018603139 -0.13460097 -0.37114176 -0.041471913
0.012193506 -0.21391122 0.055026513 -0.30368564 -0.057545617 0.10222768 -0.15117536 -0.2333015
0.034067538 -0.11790156 -0.110227644 0.19880742 0.7814286 0.05581124 0.10175605 0.1545974
-0.14998274 -0.14417283 0.04970247 0.38056812 0.10639597 0.2523386 -0.31402206 0.10018765
0.0037662662 -0.15165703 0.15303795 0.23824555 -0.48335248 -0.28619218 -0.3386158 -0.056987677
0.18192692 -0.19451928 -0.15842773 -0.009641002 0.06730912 -0.08288569 0.18125528 0.43840584
-0.21084893 -0.03809452 -0.0489385 -0.24655972 -0.11165356 -0.15807045 0.05139383 -0.07527026
0.2523153 0.048483733 0.098568656 0.09874495 -0.2505583 0.006325441 0.042831678 -0.07142313
-0.10112836 -0.7605676 0.20218357 0.20033973 0.20975219 0.08427237 -0.10000548 -0.08581692
-0.083808355 -0.090620026 0.04613721 -0.104226895 0.108402394 0.18750194 -0.16021712 -0.0802846
0.12546591 -0.16970955 0.18860394 -0.24971876 -0.1974337 0.045095835 -0.033087578 -0.16084652
-0.3238405 -0.08049447 -0.02915134 0.45230454 -0.3085744 -0.011804503 0.21691163 0.05833995
0.10757793 -0.020050403 0.3889137 0.060927637 0.18763568 0.013626967 0.62510985 -0.053881597
-0.13814585 0.123195834 0.21416576 -0.14823662 0.054168917 0.096535675 -0.117504835 0.122780025
0.14453606 0.09233107 0.020510392 0.009134104 -0.00459774 -0.09616188 0.03244925 0.07286312
0.20778869 -0.13580947 0.042994194 0.054323412 -0.017665187 -0.24513946 0.0019880694 0.41189173
-0.040055018 0.4035534 -0.15863398 -0.021039927 0.059015278 -0.055276126 -0.005618899 -0.29083544
-0.080182485 -0.6114936 0.0038135874 0.13909394 0.22916561 0.10649616 0.005326782 -0.05354298
0.032808196 0.04005773 -0.06161963 -0.107805476 0.17484196 0.02510757 0.17718168 0.035233837
-0.11101783 -0.44318113 -0.09395294 -0.19939934 0.17428175 0.24860345 -0.049829032 0.13571753
-0.005000531 -0.15617321 0.17335178 -0.014363482 0.20570342 -0.12691627 -0.16755629 0.09922244
-0.0038666348 0.00998818 -0.22123529 0.5361679 -0.2230148 -0.06767984 -0.090639114 -0.052415095
-0.06434861 -0.36221248 -0.21318556 -0.0052362382 -0.014280789 -0.11458941 -0.06844046 -0.25145957
0.11437438 0.1657746 -0.88435423 0.017680211 -0.00048339108 -0.22370881 0.12386486 -0.051264293
0.19339979 0.055336256 0.18145472 0.6661538 -0.112113565 0.3241327 -0.19869106 0.16986081
-0.22917704 -0.042529635 0.02064911 0.03240479 -0.20864378 -0.17732684 -0.12002944 0.08475964
0.048046727 0.07964396 0.05366677 0.02597733 -0.20533352 -0.23673093 1.0426955 0.07511447
0.048211396 0.06203519 0.16331002 -0.022129942 -0.06825789 -0.09621709 -0.32489413 0.39050895
0.17871748 -0.1204434 -0.054966662 0.055040024 -0.044671558 -0.15835133 0.19939288 0.23659296
-0.089504264 0.26683366 -0.031163469 0.10722536 -0.10122198 0.23910047 0.08602783 -0.047154635

bias f4 [102]
00000000: 1c20 873d cae2 21bd 2483 f7bc 2fdf 7bbc
00000010: fbe5 b9bd a550 c7bd e9da cdbd 09c0 cbbc
00000020: bbca 05bd 7ce7 f1bc 3762 8bbd 8d60 5bbd
00000030: 8555 1d3c 42b2 85bd 2194 0b3d acf4 aebd
00000040: c0f4 bbbd cda9 973b 9dc4 d8bd 0654 84bd
00000050: e9a6 9fbd e324 72bd 8359 64bd afa1 193c
00000060: b8e0 5cbd 2742 8cbd f5e6 cabc 5f7a e3bd
00000070: 4311 a9bd f86c 33bd 786f 24bd d0e5 d2bd
00000080: 8e01 723c 2fa6 5fbd 1320 a0bd 507d 12bc
00000090: acca a3bd 2aea 99bd cb93 77bd 5a70 9dbd
000000a0: 86df 113d bbdf c63c 1122 2f3d 8ce4 d93c
000000b0: dd07 9bbc da3f b9bb a4b6 c1ba 64db d23d
000000c0: 2193 95bc 74e7 753c bfb4 9b3d 8671 1c3d
000000d0: 593c b13d 056f 4b3b 2407 b03d c6db 463d
000000e0: 75d9 02be 6461 d53c 70e2 4abc 7e96 7b3d
000000f0: 9a0d 223d cb17 ac3b e540 973d 6283 363d
00000100: f8c5 47bc 55d2 fabc de42 43bd ee32 1dbd
00000110: 50f4 b9bc 07cc 5ebd 351e 843c f73d 503d
00000120: e424 7ebd 3075 8a3d 62f2 a43d e5f5 fdbc
00000130: 2c4a a0bd 77b6 9dbd ed01 843d 94ed 6fbd
00000140: 3ac0 2fbc 7b2b d2bc f425 e7ba f1f9 37bd
00000150: c912 e8bc ca86 8d3c d908 2bbd 41fb 8ebd
00000160: f8b6 0cbd d916 28bd 3f2d 92bb 5384 023d
00000170: d93d 463b 7e0c 95bc 1f01 36bd 4f27 8fbd
00000180: 9b97 8dbd 0e30 c7bd 8e69 c3bd d817 a6bd
00000190: 28f1 1fbd b0bd 7bbd
0.06597921 -0.039522924 -0.0302139 -0.015373035 -0.090770684 -0.097321786 -0.100515194 -0.024871843
-0.032664042 -0.029529326 -0.06805842 -0.053558875 0.009602909 -0.065281406 0.034076814 -0.08542761
-0.09177542 0.004628396 -0.10584376 -0.06461339 -0.077955075 -0.05911721 -0.055749428 0.009376927
-0.053925246 -0.06848555 -0.024768332 -0.11107325 -0.082552455 -0.043805093 -0.040145367 -0.102977395
0.0147708785 -0.054601844 -0.07818618 -0.00894101 -0.07997641 -0.075153664 -0.06044368 -0.07687445
0.03561356 0.024276605 0.042757098 0.026598237 -0.018924648 -0.0056533637 -0.0014779163 0.10295752
-0.018258633 0.015008796 0.07602834 0.038194202 0.086540885 0.0031041515 0.08595112 0.048549436
-0.12778266 0.026047416 -0.0123830885 0.061422817 0.039563753 0.00525186 0.073854245 0.04455889
-0.0121931955 -0.030617872 -0.04767119 -0.03837865 -0.022699505 -0.054393794 0.016127685 0.050840344
-0.0620469 0.06760633 0.08054043 -0.03100104 -0.07826647 -0.07700818 0.0644568 -0.05857618
-0.010726983 -0.025655499 -0.0017635212 -0.044916097 -0.02832927 0.017276186 -0.041756485 -0.06981517
-0.03435418 -0.041037414 -0.00446096 0.031864475 0.0030249266 -0.018194433 -0.044434663 -0.069899194
-0.06913682 -0.097259626 -0.09541617 -0.081100166 -0.039048344 -0.061460197
