predictor/models/twitter_emb_low.pt (torch, 2667 bytes, 1 tensors)

weight f4 [29, 16]
0.9544627 -3.2464705 1.058402 1.1488998 0.40411067 2.268761 0.082093365 -1.1869819
0.03952449 0.4151638 -2.9652054 3.2519796 1.3332558 -1.9549417 -0.05136544 -0.3981197
-1.3504571 -2.2940726 -2.1599221 -0.03532893 -0.15447149 -0.08773253 -0.16788466 -1.1139379
-1.01258 2.8609333 0.030921211 1.3155541 -0.32638457 -0.097621314 0.5467439 3.7520666
1.0013171 0.8524426 0.52294636 1.7521468 1.6558268 -1.5597321 0.15893766 0.61627895
1.518664 -2.6410155 -0.3700984 -0.11961219 -3.2922943 0.8027668 -0.101553746 2.479877
-2.3514395 -0.8476458 0.96409047 3.0454006 0.7936918 -1.8015466 -0.47027332 -0.20695813
1.9087698 0.9215045 -1.7385987 -1.3177327 -0.29561365 -1.2002281 0.951344 -0.8357538
0.26713628 -0.3034607 -2.5898435 -0.45859772 0.73787767 -0.1656662 1.5548427 -0.6617667
-0.024894623 -2.077393 2.2317889 0.9123687 -0.63268256 -1.0879798 -1.7178504 -1.9603183
1.9361013 1.8136163 -0.12037094 -2.0799878 -0.52476925 -0.72945577 1.8082889 -0.67108625
-0.26503846 1.6297554 -1.7891546 -1.2720181 -0.9649971 1.2739387 -1.6390297 -0.83235204
1.1411355 0.94238484 -1.1807083 -0.20801291 -1.914334 -0.8609549 -2.012074 0.42177284
1.0047256 -2.5157838 1.5921018 -1.3867869 0.8893015 -0.40139973 0.98481816 -0.786192
2.3324432 -1.4206917 0.3368378 -0.8515248 3.2250645 -2.2068658 -0.38427752 0.18906844
-0.9878412 -0.9476461 1.073089 3.1599898 -0.77232605 0.8152631 -0.13398297 -0.71574104
1.3878179 -1.504866 1.2841964 1.4430268 0.37900525 -0.20123899 2.9779012 1.1411233
-2.9038405 2.3052258 -0.31734383 -0.8325119 0.0030205895 0.4469954 0.8643582 2.5094936
-0.4591658 -1.2658515 1.1905377 -0.8517158 0.67468655 0.5156403 -0.6476123 -2.4367375
-0.30103812 0.39502308 1.0910748 0.7045932 2.7888048 1.7941989 1.4440984 -1.7055285
1.0772984 -2.4495466 0.35489416 0.10004493 1.2627032 -1.4355024 -0.9823403 1.8025893
2.3222513 -0.2985772 0.6278515 -0.112109184 0.5479602 -1.750458 1.2402186 3.3741453
-2.1998549 -1.3594749 -1.1417768 -0.5668594 0.4458161 1.1246115 -1.7138954 0.83952594
-0.7909478 -0.7094873 -0.22551186 0.50563675 -3.4346218 -2.0472255 -0.9975615 -1.6763009
1.0205576 1.1178732 -0.8214355 0.2210751 0.75105095 0.18398678 -2.6625843 -1.8421669
1.2506664 0.56366444 2.1068785 0.58462787 -1.8936241 -0.40172127 -1.5222402 -0.33167347
1.3490826 1.864266 -1.3136057 0.07297665 -0.9138547 -1.1357611 1.1674415 0.7558007
-1.9546338 -0.10610694 -0.057555504 -0.02657292 -0.50985605 -2.959393 1.7744286 1.4081709
-2.701702 1.2228688 1.7067266 -1.6029488 1.4196788 1.0993818 -0.89027625 0.27384216
0.6726464 -1.3116102 -0.15281822 -0.2678073 0.34869596 -0.6465828 0.98506 1.182164
-0.067288436 -0.7255922 1.4817313 0.30763167 -1.1756618 -1.5428984 -0.12070359 -0.9020803
-0.46087316 -0.23086727 0.41680235 -0.25163522 0.246337 -0.36349374 -2.5687153 1.7077382
00000000: ab57 743f 2cc6 4fc0 b779 873f 260f 933f
00000010: 98e7 ce3e 6133 1140 9120 a83d 06ef 97bf
00000020: 6ee4 213d 5990 d43e edc5 3dc0 6f20 5040
00000030: 20a8 aa3f 883b fabf 9164 52bd 58d6 cbbe
00000040: c7db acbf 16d2 12c0 2a3c 0ac0 11b5 10bd
00000050: c62d 1ebe 1dad b3bd f5e9 2bbe 8495 8ebf
00000060: 399c 81bf 8819 3740 7b4e fd3c 1464 a83f
00000070: e11b a7be afed c7bd 69f7 0b3f dc21 7040
00000080: 292b 803f ae39 5a3f d0df 053f 5946 e03f
00000090: 22f2 d33f 4da5 c7bf 8ec0 223e 75c4 1d3f
000000a0: 9563 c23f 6606 29c0 8a7d bdbe 3cf7 f4bd
000000b0: f3b4 52c0 2082 4d3f 69fb cfbd 4eb6 1e40
000000c0: fc7d 16c0 51ff 58bf a2ce 763f d8e7 4240
000000d0: 632f 4b3f 1499 e6bf aac7 f0be d5ec 53be
000000e0: 9252 f43f b8e7 6b3f 678a debf 77ab a8bf
000000f0: ac5a 97be 13a1 99bf 488b 733f f6f3 55bf
00000100: 16c6 883e 335f 9bbe ffbf 25c0 52cd eabe
00000110: 8de5 3c3f 66a4 29be 1605 c73f 8b69 29bf
00000120: cfef cbbc 02f4 04c0 a1d5 0e40 ff90 693f
00000130: 7cf7 21bf ec42 8bbf 86e2 dbbf b6eb fabf
00000140: 2bd2 f73f 9424 e83f 0a85 f6bd 851e 05c0
00000150: 4757 06bf 9dbd 3abf 0376 e73f 4fcc 2bbf
00000160: 1fb3 87be d39b d03f 0503 e5bf 7dd1 a2bf
00000170: 0d0a 77bf 6c10 a33f bacb d1bf 0615 55bf
00000180: ba10 923f 2240 713f 7321 97bf 5601 55be
00000190: e608 f5bf 8a67 5cbf d2c5 00c0 9cf2 d73e
000001a0: d99a 803f 9a02 21c0 fec9 cb3f 3c82 b1bf
000001b0: 43a9 633f 4484 cdbe 0b1d 7c3f e143 49bf
000001c0: c046 1540 3ad9 b5bf 0176 ac3e 87fd 59bf
000001d0: 7567 4e40 4a3d 0dc0 06c0 c4be 289b 413e
000001e0: 29e3 7cbf ef98 72bf fb5a 893f 463d 4a40
000001f0: 29b7 45bf 15b5 503f d532 09be ce3a 37bf
00000200: 04a4 b13f 739f c0bf 8c60 a43f 1ab5 b83f
00000210: fa0c c23e 9811 4ebe ef95 3e40 5410 923f
00000220: 86d8 39c0 d288 1340 e47a a2be 801f 55bf
00000230: 15f5 453b 95dc e43e 9446 5d3f 8b9b 2040
00000240: c817 ebbe 6c07 a2bf 8a63 983f 0c0a 5abf
00000250: 42b8 2c3f 0101 043f ebc9 25bf 82f3 1bc0
00000260: ab21 9abe 7740 ca3e 57a8 8b3f 3860 343f
00000270: c77b 3240 4fa8 e53f 37d8 b83f c24e dabf
00000280: eae4 893f 5fc5 1cc0 b0b4 b53e 5be4 cc3d
00000290: 42a0 a13f 8bbe b7bf a77a 7bbf 3fbb e63f
000002a0: c49f 1440 1cdf 98be e0ba 203f 8099 e5bd
000002b0: 1f47 0c3f 020f e0bf 7cbf 9e3f fff1 5740
000002c0: 6cca 0cc0 4603 aebf be25 92bf b31d 11bf
000002d0: 0242 e43e 45f3 8f3f ed60 dbbf 2ceb 563f
000002e0: 8e7b 4abf f6a0 35bf 95ec 66be 6971 013f
000002f0: d8d0 5bc0 be05 03c0 3160 7fbf 0791 d6bf
00000300: a2a1 823f 7816 8f3f 9949 52bf 8361 623e
00000310: e044 403f 0867 3c3e c867 2ac0 20cc ebbf
00000320: d615 a03f 504c 103f 19d7 0640 2caa 153f
00000330: 4662 f2bf 69ae cdbe c4d8 c2bf 1bd1 a9be
00000340: bdae ac3f 45a0 ee3f 3b24 a8bf c874 953d
00000350: 62f2 69bf 9f60 91bf b96e 953f 287c 413f
00000360: 7131 fabf 984e d9bd 52bf 6bbd 74af d9bc
00000370: ed85 02bf b266 3dc0 7a20 e33f f23e b43f
00000380: b0e8 2cc0 f786 9c3f 0476 da3f 6d2d cdbf
00000390: 09b8 b53f 8bb8 8c3f 25e9 63bf 0a35 8c3e
000003a0: 8e32 2c3f d8e2 a7bf 617c 1cbe 0a1e 89be
000003b0: 4788 b23e 7386 25bf e42c 7c3f 2651 973f
000003c0: 85ce 89bd 69c0 39bf 5fa9 bd3f e681 9d3e
000003d0: 167c 96bf b27d c5bf 7233 f7bd bcee 66bf
000003e0: 91f7 ebbe 7868 6cbe 1e67 d53e 55d6 80be
000003f0: c43f 7c3e da1b babe d565 24c0 2a97 da3f
