predictor/models/twitter_emb_all.pt (torch, 7339 bytes, 1 tensors)

weight f4 [102, 16]
00000000: b9e1 853f 7978 86c0 8541 d33f 1537 223f
00000010: 6bec 013f e763 1f40 4da3 1e3e f7d6 afbf
00000020: 0819 6ebf 6f7a 213f e2fe 54c0 ac6c 6840
00000030: 03fc cf3f 61f7 0ec0 3a2d 5abf 4c50 7ebf
00000040: c93a 76bf 8ac4 febf 2552 d4bf e038 923e
00000050: a528 0e3e 4a0d b53d 5aa0 593d 4cd9 4abf
00000060: 4847 74bf 945f 0f40 ab3c 95bc 4c87 9d3f
00000070: 4ef6 b0be 8f1d fbbe 26e3 1c3f cd3c 4640
00000080: 8faa a43e 7dac 593f 5aa5 253f 3df5 a53f
00000090: 93c5 8e3f 3b37 81bf ccdc 1e3f 918e e83e
000000a0: 2417 573f ed33 01c0 b7f4 cabe bc48 04bf
000000b0: bd84 15c0 7257 333f 0798 8fbe 7b50 ba3f
000000c0: 3ff0 05c0 66d3 36bf c488 f13e d96e f93f
000000d0: 4bec 893e 7bec abbf 9a73 d6be 81f9 c9be
000000e0: 48d1 e93f 868d 4a3f 8b40 c4bf a390 5ebf
000000f0: 7be3 98be a4c8 43bf 84da 5b3f 66e7 a8bd
00000100: 7f3e 553e 7e11 1fbe 1914 b3bf e349 babe
00000110: ac2e f43e dcce 46be b0bd cc3e 1355 4dbf
00000120: ea40 933d 3437 acbf 7ded b93f 036d 493f
00000130: 810d c5be b4cb 27bf 90a8 b9bf 0559 9abf
00000140: ba96 d83f f4b6 e13f be11 d4bd 71d5 debf
00000150: 4f02 e2be ff4f 45bf 6c96 bc3f 6370 1abf
00000160: 91ce adbe 4155 973f 9080 c3bf 3baf a2bf
00000170: 58e1 59bf 4dd0 6d3f 9191 b5bf dbba 16bf
00000180: b7e6 073f 0c03 873f 9f66 5cbf 349a 1fbf
00000190: 5977 a5bf 91ad 21bf cca4 8abf 6052 373d
000001a0: 7482 463f e44c c0bf 2bf8 873f 270a 83bf
000001b0: ea33 1d3f 4a89 e73d 6adc 4d3f b7e9 15bf
000001c0: a624 d83f 2507 a3bf 09ac 373d 3aa1 83bf
000001d0: 383e 1740 55bc b3bf b62d 31bf 4562 edbd
000001e0: 5d4e 0ebf b598 17bf ada5 623f f4d1 2d40
000001f0: b9b6 dabe 4a80 bd3e 4a3d 79be a49f 11bf
00000200: 9701 733f ddc6 d1bf 489b 9b3f c8b7 973f
00000210: 49ce 233c 70d5 97be e9d6 1e40 d681 4a3f
00000220: dc9e 22c0 07a3 0a40 809a 00bf 984e 4ebf
00000230: 05a4 643e 378e 173f 702f 243f 3b21 1f40
00000240: ac25 38be 7a4a a4bf 6ac6 7e3f 681c 1fbf
00000250: 4c80 423f 9557 3a3f 6d46 22bf 4a3d fcbf
00000260: 0300 04be 44fb b63d 7d2a 323f bd28 3d3f
00000270: 1b76 1040 79fc 9c3f 09a6 993f 3f2e d1bf
00000280: 0fbc 863e a8ac 2dc0 a08f 163f 349b 14be
00000290: 9538 1a3f 4a8d 8dbf de83 6bbf e0c2 7d3f
000002a0: 7ec2 f43f 2bfb 6c3e b4ac 8a3d 52c0 053f
000002b0: f9c4 5d3f def6 25bf d188 683f a562 2140
000002c0: bc88 c5bf 8184 84bf 5c7d 1ebf 576e b7be
000002d0: 5e96 d93e 087d 453f b81e c0bf 06d6 333e
000002e0: fe1e fb3d 012a eebe 9898 51bd 2a57 4a3f
000002f0: 8bbf 07c0 bb1e dcbf a428 91bf 2bfd 49bf
00000300: be1e 293f 1754 293f 8e21 65bf 048a ce3c
00000310: 292c f93e 0180 31be 9a8e e1bf ea59 cfbf
00000320: b344 333f d8c4 41bd 5818 e13f 8a08 b03e
00000330: 3f54 a9bf 68f1 15be 6ec9 bcbf 62b0 dcbe
00000340: e41e 333f 768f 753f 430c 47bf a325 113d
00000350: 633f 31bf 6490 48bf b442 573f c948 ee3e
00000360: 40c6 d8bf 8cde b4be 3ad0 9ebe 2410 aabe
00000370: 1e51 32be 2f4d edbf bf9a 823f a8a3 733f
00000380: 8b86 4ec0 d8d4 b43e efd9 6840 eccf 37c0
00000390: a359 0b40 89d9 d03f 40cc 0ec0 2171 bfbd
000003a0: 84f1 18bb 921b ffbe 5052 5fbf 2679 d3be
000003b0: cc0e 2a3c 120b 6bbf d1f1 a13f b603 8d3f
000003c0: fedc 4f3d 2ebb bbbe 48a8 383f 5e75 913e
000003d0: 7d52 2dbf 511d 79bf 977b a23e 0ff6 2abf
000003e0: a113 10bf f1fd 81be 6583 573e d78e acbe
000003f0: baf6 afbd 9a51 d4be b437 dbbf 9208 913f
1.045951 -4.202206 1.650437 0.633653 0.5075137 2.4904726 0.15491982 -1.3737477
-0.93006945 0.63077444 -3.3280568 3.6316328 1.6248783 -2.2338488 -0.8522526 -0.99341273
-0.9618345 -1.9903729 -1.6587569 0.28559017 0.13882692 0.08840425 0.05313144 -0.7923782
-0.95421267 2.2402086 -0.018217405 1.2306914 -0.34562916 -0.4904599 0.612841 3.097461
0.32161376 0.8502882 0.6470543 1.2965466 1.1154045 -1.009498 0.6205566 0.4542127
0.84019685 -2.0187943 -0.39639828 -0.51673484 -2.3362267 0.70055306 -0.28045675 1.4555811
-2.0927885 -0.7141632 0.47174656 1.9486953 0.2693809 -1.3431543 -0.41885072 -0.3944817
1.8266993 0.791222 -1.5332197 -0.8693945 -0.29861054 -0.7647803 0.85880303 -0.08247261
0.20824622 -0.15534016 -1.3990508 -0.36384496 0.47691858 -0.19414848 0.3998847 -0.8020794
0.07190116 -1.3454347 1.4525601 0.78681964 -0.38486865 -0.655452 -1.4504566 -1.2058417
1.6920998 1.7633958 -0.103549466 -1.7408887 -0.44142386 -0.7707519 1.4733405 -0.6032774
-0.3394666 1.1822892 -1.5273609 -1.2709726 -0.8510947 0.92895967 -1.4185048 -0.5887887
0.5308642 1.0547805 -0.8609409 -0.6234467 -1.2927047 -0.63155466 -1.0831542 0.044756293
0.77542806 -1.5023465 1.062261 -1.0237473 0.6140734 0.11305483 0.8041445 -0.58559746
1.6886184 -1.2736555 0.0448418 -1.0283577 2.3631725 -1.4041849 -0.69210374 -0.11591009
-0.5558832 -0.5921739 0.8853405 2.7159395 -0.4271753 0.3701194 -0.24339786 -0.5688422
0.949243 -1.6388813 1.2156763 1.185296 0.009997913 -0.29655027 2.481867 0.79104364
-2.540946 2.1662004 -0.5023575 -0.80588675 0.22328193 0.5920138 0.64134884 2.4864032
-0.1798312 -1.2835228 0.99521506 -0.6215272 0.75977015 0.7278989 -0.6338871 -1.9706204
-0.1289063 0.08934644 0.6959608 0.73890287 2.2572086 1.2264549 1.2003795 -1.6342238
0.26315352 -2.713663 0.58812904 -0.1451233 0.6024259 -1.1058743 -0.9199809 0.9912548
1.9121854 0.23142688 0.06771222 0.5224658 0.8662868 -0.64829814 0.90833765 2.5216458
-1.5432353 -1.0352937 -0.61910033 -0.3582637 0.42497534 0.7714391 -1.5009375 0.17562112
0.12261771 -0.4651642 -0.051170915 0.7903925 -2.1210659 -1.7196878 -1.1340528 -0.7890193
0.66062534 0.66143936 -0.89504325 0.025212295 0.48666504 -0.17333986 -1.7621644 -1.6199315
0.700267 -0.047306865 1.7585554 0.34381515 -1.3228835 -0.1464287 -1.4748971 -0.4310332
0.6996901 0.9592203 -0.77753085 0.035436284 -0.69237345 -0.7834532 0.84086156 0.46539906
-1.6935501 -0.3532604 -0.3101824 -0.3321544 -0.17413756 -1.853918 1.0203475 0.95171595
-3.2269619 0.35318637 3.6383016 -2.8720655 2.177346 1.6316386 -2.2312164 -0.093477495
-0.0023337314 -0.49825722 -0.87234974 -0.41303366 0.010379504 -0.91813767 1.2651922 1.1016757
0.050747864 -0.36666244 0.72131777 0.28409857 -0.6770399 -0.9731036 0.31734917 -0.66781706
-0.5627995 -0.25389054 0.21046217 -0.33702728 -0.08591981 -0.41468507 -1.7126374 1.133074
