predictor/models/twitter_linear_low.pt (torch, 30759 bytes, 2 tensors)

weight f4 [29, 256]
000000 83 62 04 3e 48 57 2d be a0 91 85 bd 6b 3a 54 bd
       0.12928204 -0.16927826 -0.065219164 -0.051813524
000010 7b 55 2e be de 84 c7 be 61 b3 40 bd c2 ad 5a be
       -0.17024796 -0.38968557 -0.04704607 -0.21355346
000020 1b fb 8a 3d e7 20 47 bd 08 fb f4 bb 65 c2 18 be
       0.06786176 -0.048615362 -0.0074762143 -0.14917906
000030 22 37 b4 3c d1 c5 4b bd 99 b5 1c bc 99 66 05 bd
       0.021998946 -0.0497492 -0.009564781 -0.032568548
000040 b4 9b 11 bc 3d ed 8c bd e3 06 6d 3d bd 5a 49 be
       -0.00888722 -0.06881187 0.057867896 -0.1966352
000050 ea 15 c4 3e 0e 12 1b 3d 7e 73 0b 3e 35 a7 57 bd
       0.3829797 0.037859015 0.13618276 -0.052649695
000060 b5 d4 2a be ee 7e 4e 3d e9 76 46 be be 86 c0 bb
       -0.16682704 0.05041402 -0.19381298 -0.0058754375
000070 73 12 0e bd 1e 00 6d 3e ff eb 46 be 6c e0 bf 3c
       -0.034685563 0.23144576 -0.19425963 0.023422442
000080 7b 8e 3b 3e 2b 81 26 3d 9a a4 62 bd 4b 46 c9 bd
       0.1831607 0.040650528 -0.055332758 -0.098278604
000090 97 59 83 be 57 6e 7b be 07 13 8e bd 34 bf b1 bd
       -0.2565429 -0.2455381 -0.06937223 -0.08679047
0000a0 dc 89 5c 3e b2 a1 df bc bb a7 e4 be 20 4d bd be
       0.21536964 -0.027298782 -0.44659218 -0.36972904
0000b0 08 86 c3 bd 19 27 f1 3d 6f a1 a7 be 9c e8 40 3e
       -0.09547049 0.117750354 -0.32740352 0.18838733
0000c0 a5 cf 61 3e c2 88 d4 3e 12 9f b8 bd 5b 5f 6f 3d
       0.22051866 0.41510588 -0.09014715 0.058440547
0000d0 09 85 8e be ed 40 39 be 69 24 04 bd 24 53 a3 bd
       -0.27835873 -0.18091173 -0.032261286 -0.07974842
0000e0 20 d2 ff 3d 1f b6 97 be 3c 1a c8 3d f7 51 16 be
       0.1249125 -0.29631135 0.09770629 -0.14679705
0000f0 ac 18 26 3e 53 bb 7c 3d a3 7b ba bc f9 6d 1a 3c
       0.16220349 0.061702084 -0.022764033 0.009425634
000100 96 c8 14 3e b6 3e 8e 3d 05 e9 07 3d 32 8c 18 3d
       0.14529642 0.06945555 0.03318121 0.037243076
000110 f9 93 15 bd a3 ef 1f bd 34 1b 83 bd 70 f9 51 bd
       -0.03651807 -0.039046895 -0.06401673 -0.051263273
000120 7f 3b 06 be 20 bd 11 3e 36 fc bd 3d 08 41 b7 3d
       -0.13108633 0.14232302 0.09276621 0.089479506
000130 56 42 a9 bd 17 49 99 3c 73 5a d7 bd 4b e1 a3 3d
       -0.08264606 0.01871161 -0.10515299 0.080019556
000140 25 85 18 3d 4e 01 d9 3d 97 41 b8 3d 97 9f 8b 3e
       0.03723635 0.10595952 0.08996885 0.27270195
000150 85 05 09 3e 07 11 cc 3d 7e 4f ef bb cc 60 80 be
       0.13381012 0.09964185 -0.0073031774 -0.2507385
000160 e4 a0 2e 3d 06 d2 c2 3b 83 07 5e 3d c5 bb 98 3e
       0.042633906 0.005945447 0.054206382 0.29830757
000170 57 ab 54 be 44 ee 41 3e 8a 9e cc 3d 8c 26 fd be
       -0.20768486 0.18938547 0.099911764 -0.4944347
000180 ff 0e 95 bd c2 29 a4 bd 63 a0 80 3c 11 8c 34 be
       -0.07278251 -0.08015777 0.015701478 -0.17631556
000190 37 69 5b be 21 b0 01 be 6f 9f 7b 3e 69 24 66 bc
       -0.21426855 -0.12664844 0.24572538 -0.014046767
0001a0 80 b9 91 bd cb 05 8e bd 8e 5b 5c 3e 78 7c 15 bd
       -0.071154594 -0.06934699 0.215193 -0.036495656
0001b0 1b 54 cc 3d c8 ff 01 3d e8 01 cc 3b cf 2c f4 bd
       0.09976979 0.031738073 0.006225813 -0.11922609
0001c0 f1 d0 25 bd 44 d2 90 3e e2 cf 64 3d fb c7 c0 be
       -0.040482465 0.2828542 0.055862315 -0.37652573
0001d0 d5 72 46 3e 71 fb 9a 3d 77 2c 9b bd 4f 59 10 3e
       0.19379742 0.0756749 -0.0757684 0.14096569
0001e0 e6 cd ea 3d cb 6c 46 3d 2e 0c 14 3e dd 74 2d 3e
       0.11465053 0.048443597 0.14457771 0.16939111
0001f0 99 27 8b bd 27 e9 30 3e 2d f6 a9 bb 34 6b 05 3e
       -0.06794662 0.1727644 -0.005186817 0.13029176
000200 14 84 c8 bd 4d 5c 81 3d 24 ae d7 be ed bf 6e bc
       -0.09790817 0.06316433 -0.42125046 -0.014572126
000210 6e 4e 80 3e fa d8 b3 3d d1 1b a4 3d 1d ee 2c be
       0.25059837 0.08781619 0.08013118 -0.16887708
000220 51 b9 8c be 80 c5 8f 3e b3 74 fc bd 39 0b 86 bc
       -0.27485135 0.28080368 -0.12326946 -0.016362773
000230 6c fb 52 bd a3 a1 74 bd bb fe ac 3d 76 a5 b6 3c
       -0.051509306 -0.05972446 0.084470235 0.022295695
000240 cc 74 3e bd 8d fc b8 3d 2f 36 d5 bd 4e 38 2c bc
       -0.046498105 0.09032545 -0.10410725 -0.010511471
000250 cb f6 8b bd ae e9 35 bd ee c9 d3 3e c0 01 9a 3b
       -0.068341814 -0.044412307 0.41364998 0.0046999156
000260 4f 89 bb 3e d4 53 e3 bd 24 48 15 3d b8 9c 4f 3d
       0.36628196 -0.11099973 0.03644575 0.050686568
000270 6e 12 83 3c e2 21 82 be 0b 4b 05 3b 26 fb 64 3d
       0.015999999 -0.25416476 0.0020338919 0.055903576
000280 0a c0 02 3c 60 9a 31 3e 10 78 3a bd ac b1 94 bd
       0.007980356 0.17344046 -0.045524657 -0.07260451
000290 e0 aa c9 ba ba 79 21 3e b7 7b da 3d 9c a8 2a 3c
       -0.0015386008 0.15769091 0.10668128 0.010416176
0002a0 18 49 77 3d 31 60 00 bd 0d 3f 8d bd 6d 26 48 be
       0.060372442 -0.031341735 -0.068967916 -0.19545908
0002b0 5b 37 ff bb 02 98 84 3d d9 56 08 be dd 16 73 3d
       -0.0077885813 0.06474306 -0.1331438 0.059347976
0002c0 8f 77 42 bd c6 f1 53 3d 53 3b 82 3d 2a fa 8c 3c
       -0.0474773 0.051744245 0.063589714 0.017209131
0002d0 4f 03 4d be 06 b1 c4 bb 34 e7 18 3e 39 e6 11 3e
       -0.20020793 -0.006002548 0.14931947 0.14247979
0002e0 e6 2e 4d bc cd 76 15 3e 00 97 3c bd 54 1e c5 3e
       -0.0125233885 0.145961 -0.046042442 0.384997
0002f0 71 af 61 be aa 42 cf 3d 2b 2a 2b be e7 3c 15 3d
       -0.22039582 0.10120137 -0.16715305 0.036435034
000300 8a fa f4 bd 77 f6 3a 3c 07 d1 7d 3e 4b 90 a7 bd
       -0.11961849 0.011411301 0.24786769 -0.081818186
000310 38 f5 70 3e ef ec dc 3c 76 55 96 3e 72 9d f4 3d
       0.23531044 0.026968447 0.29362077 0.11944093
000320 0e 79 dd bb 6d c7 c9 bd 8a ea bb 3d 0d 08 b0 3d
       -0.0067588156 -0.098524906 0.09175594 0.085952856
000330 9e 9c 89 bb 8f 43 82 bd 7c 14 02 be 8d f1 42 be
       -0.0041995784 -0.06360542 -0.12703127 -0.19037457
000340 79 7c 66 3d d0 6c 0e 3d 41 61 27 3d 7a ee bf 3d
       0.05627105 0.03477174 0.040864233 0.09371658
000350 22 e9 da bc b3 16 8d bd 4b 9d c8 3d ce 08 1c 3d
       -0.026722495 -0.06889095 0.09795626 0.038094334
000360 ac 7e b0 3d 16 f9 15 bf 99 75 f9 bd 04 9f e2 3c
       0.08617911 -0.585832 -0.12180633 0.027663715
000370 38 a2 e5 bd 95 25 8e 3d 2e 94 06 3e af 61 e8 3d
       -0.112125814 0.06940762 0.13142464 0.11346757
000380 b1 5b 31 3e a9 3a be be 54 2d 46 3b ef e0 0b 3e
       0.17320134 -0.3715413 0.003023942 0.13660024
000390 44 d7 92 3e cf 35 a7 bd 51 76 b2 3d ef d2 2d 3e
       0.2867986 -0.0816456 0.08713973 0.16974996
0003a0 eb b4 ac 3e 9a 90 b5 bd 1a db 97 bc 24 3c b0 3e
       0.3373178 -0.08865471 -0.018537093 0.34420884
0003b0 a6 07 f3 be 5a 7f d1 3b ec 0d 96 bd 03 5e 1e bd
       -0.47466773 0.0063933553 -0.07326874 -0.038663875
0003c0 e6 90 a0 3e 33 d8 86 3d f0 c1 ad 3d e3 90 e5 bd
       0.3136055 0.065842055 0.08484256 -0.112092756
0003d0 45 7f 3e be 37 bd 8e be b1 1d 5d 3e 5a 36 44 bd
       -0.18603237 -0.27878734 0.21593358 -0.047903396
0003e0 e8 f5 3f be e8 ad 12 3e 54 9a 05 be bf 90 34 3e
       -0.1874615 0.14324152 -0.13047153 0.17633341
0003f0 15 9b 2e 3e 55 9e 41 3e 80 dd 06 be b8 08 8d 3e
       0.17051347 0.18908055 -0.13170433 0.27545714

bias f4 [29]
000000 31 97 a0 3d 3e 6f f1 3c 43 6d 04 3d 4c ee c4 bd
       0.078413375 0.02947199 0.032330763 -0.09615764
000010 7b 75 b5 bd 0a 15 c0 bc 18 b1 1e bc 4b 7a 58 bc
       -0.08860298 -0.023447532 -0.009685777 -0.013212751
000020 d4 d1 8e 3d d8 0c d7 3d 0b 23 0a bd 4f 58 3b 3c
       0.06973615 0.105004966 -0.033724826 0.011434629
000030 6d f9 a7 bd f7 2c 8f 3d 24 bd a9 bb 38 eb 92 3b
       -0.08201871 0.06990998 -0.005180018 0.0044836067
000040 55 78 bb bc fa 7c fe bd ff a7 25 bd 5b bb bc bc
       -0.022884527 -0.12426181 -0.040443417 -0.023038557
000050 2d ae 01 3d 32 4b 99 39 6d eb a0 bc 96 a6 49 bd
       0.031660248 0.0002923846 -0.01964351 -0.049231134
000060 69 dd 0a bd 26 23 d9 ba 53 9d d1 bd 72 d1 e9 bc
       -0.03390256 -0.0016566261 -0.10235085 -0.028542254
000070 9b f6 2c be
       -0.16890948
